identify_lstm.pth (torch_old, 85923 bytes, 8 tensors)

lstm.weight_ih_l0 f4 [256, 6]
0	0x3e04d50b	0.12971894
1	0xbd8d35cb	-0.06895026
2	0x3d3a341e	0.04545986
3	0xbe00a7fa	-0.12564078
4	0x3e024fba	0.12725726
5	0xbe4ba915	-0.19888718
6	0x3e18e470	0.14930892
7	0x3dde8ee7	0.108671
8	0xbdf2d9ac	-0.11857924
9	0xbd47c07d	-0.048767556
10	0x3e301664	0.17196041
11	0x3e170f7f	0.14752005
12	0xbd88d8a0	-0.06681943
13	0x3dd62346	0.104559466
14	0x3e22ef8f	0.15911697
15	0xbd9fe81f	-0.078079455
16	0x3f28300c	0.65698314
17	0xbced23a1	-0.028947653
18	0x3e9f3dfa	0.31101972
19	0xbc2d1b6e	-0.010565622
20	0x3d7db313	0.061938357
21	0x3d6649b0	0.056222618
22	0x3dd519da	0.104053214
23	0xbdf44b4f	-0.119284265
24	0xbe354386	-0.1770154
25	0xbe9b00af	-0.3027396
26	0x3d4ee461	0.050510768
27	0x3e6d3c79	0.231676
28	0xbec6a369	-0.38796547
29	0xbdf8cb40	-0.12148142
30	0x3d78c15b	0.060731273
31	0x3a1f6e71	0.00060818257
32	0xbe24c90c	-0.16092318
33	0xbd5d1d31	-0.053982917
34	0x3d137048	0.03599575
35	0x3e20f067	0.15716706
36	0x3d68aad4	0.05680354
37	0x3cbee303	0.023301607
38	0x3dce8bef	0.10085284
39	0xbd217e8a	-0.039427318
40	0xbe7ef6c7	-0.24898826
41	0x3e4e2484	0.20131117
42	0xbdb52131	-0.088442214
43	0xbe2057dd	-0.15658517
44	0xbd8c2a4b	-0.06844004
45	0x3e917e5c	0.28416717
46	0xbf393e52	-0.7236072
47	0x3e6bd82b	0.2303168
48	0xbdd14a96	-0.10219304
49	0x3d0b963f	0.034078833
50	0xbe902c66	-0.28158873
51	0xbe8513f8	-0.25991797
52	0x3e12f422	0.14350942
53	0x3eb0d29a	0.34535676
54	0xbdedb22c	-0.11606249
55	0xbd3be256	-0.045870148
56	0xbd6422ad	-0.055697132
57	0x3f078408	0.5293584
58	0xbde3fda3	-0.11132362
59	0x3eb17491	0.34659246
60	0x3dce8925	0.10084752
61	0xbdcf46d9	-0.10120935
62	0xbd0d654c	-0.034520432
63	0xbed04aa4	-0.40681946
64	0xbe84db38	-0.259485
65	0xbe98ee5b	-0.2986935
66	0x3e9c33fe	0.30508417
67	0x3e1f21a6	0.1554018
68	0x3d38ebf1	0.045146886
69	0x3ee16254	0.4402033
70	0xbee3334a	-0.44375068
71	0xbe05556d	-0.13020869
72	0x3e3be9b3	0.18350868
73	0xbcaf9ddf	-0.021437583
74	0x3e36a11c	0.17834896
75	0x3e7bf496	0.24605021
76	0xbe8b28bb	-0.27179512
77	0xbefe66b7	-0.4968774
78	0x3d23058c	0.03980021
79	0xbd275dbd	-0.04086088
80	0x3d633c37	0.055477347
81	0xbb91dc41	-0.004451305
82	0x3e0e99f9	0.13925923
83	0xbe362780	-0.17788506
84	0xbddf8b6b	-0.10915264
85	0xbdf3934a	-0.118933275
86	0xbdfc0064	-0.12304762
87	0x3f0581be	0.52151096
88	0xbe22ae78	-0.15886867
89	0xbe910353	-0.2832285
90	0xbe5e0187	-0.2168027
91	0x3d9c1d2d	0.07622752
92	0xbe06e4a9	-0.13173164
93	0x3de0531d	0.109533526
94	0xbdb713dd	-0.089393355
95	0x3e4f5647	0.20247756
96	0xbd76f0e4	-0.060288325
97	0xbe4836c7	-0.19552146
98	0xbcce3de8	-0.025176004
99	0x3d8c0c14	0.06838241
100	0xbe6d2fd7	-0.2316278
101	0x3e86be61	0.26317123
102	0xbdd8244c	-0.10553798
103	0x3d0c1933	0.03420372
104	0x3e82902f	0.25500628
105	0x3ea855e7	0.32878038
106	0xbe670703	-0.22561269
107	0xbd93abca	-0.072105005
108	0xbe1cc055	-0.15307744
109	0xbde0124a	-0.10940988
110	0x3dcbc635	0.09949914
111	0x3dc728d4	0.09724584
112	0xbe467021	-0.19378711
113	0x3f054c14	0.5206921
114	0x3d79a845	0.06095149
115	0xbe903bb7	-0.2817056
116	0xbdcc1128	-0.0996421
117	0x3e85d481	0.2613869
118	0xbdf468af	-0.11934029
119	0xbe89d085	-0.269169
120	0xbe2759d1	-0.16342856
121	0xba97d85c	-0.0011584866
122	0xbdcc36a3	-0.099713586
123	0xbeceb715	-0.40374056
124	0xbf02c4ee	-0.5108174
125	0x3e4b9c70	0.19883895
126	0x3eab40d3	0.33447894
127	0x3ded870b	0.11598023
128	0xbdc15ccc	-0.09441528
129	0xbea50ff5	-0.32238737
130	0x3dadceea	0.08486731
131	0xbf1cafb6	-0.61205614
132	0xbe5deb82	-0.2167187
133	0x3c6fadfb	0.0146288825
134	0xbd74aea6	-0.05973687
135	0xbd8c65f2	-0.06855382
136	0xbcc1b58b	-0.023646137
137	0x3d1e2246	0.038606904
138	0xbcf02a26	-0.029316973
139	0x3d2a7aac	0.041620895
140	0xbd8da6fc	-0.06916615
141	0x3e74b174	0.23895818
142	0x3ed9eae6	0.42562026
143	0x3d279f8e	0.040923648
144	0xbd0af6cd	-0.033926774
145	0xbbd6176f	-0.006533555
146	0xbeac1e6f	-0.3361697
147	0x3e17d308	0.14826596
148	0x3cad5634	0.021159269
149	0x3d9427ec	0.07234177
150	0xbd20d308	-0.039263755
151	0xbd8ef3c5	-0.06980089
152	0x3d01d862	0.0317005
153	0xbd63e2b2	-0.055636115
154	0xbe852df8	-0.26011634
155	0xbe2e2bc5	-0.17008884
156	0x3e359a7a	0.1773471
157	0x3d3e6b41	0.046489004
158	0xbe50f778	-0.20406902
159	0xbe15b43a	-0.14619532
160	0x3e9957da	0.29949838
161	0x3ebfa8dd	0.3743352
162	0x3e828a8c	0.25496328
163	0x3e0117a6	0.12606677
164	0x3e89da35	0.2692429
165	0x3ec0e28d	0.37672845
166	0xba24f5b9	-0.0006292719
167	0x3f013930	0.50477886
168	0x3ed30c2b	0.4122022
169	0x3d142938	0.03617212
170	0xbe84cf3a	-0.2593935
171	0xbbf98c3a	-0.0076155933
172	0xbe09dc37	-0.13462912
173	0xbd514a38	-0.05109617
174	0x3e9025cc	0.28153837
175	0xbd342520	-0.043980718
176	0x3e15d62c	0.14632481
177	0x3eb90112	0.3613363
178	0xbed07510	-0.40714312
179	0xbd5cf87e	-0.053947918
180	0xbd9b3280	-0.075779915
181	0x3e3bba96	0.18332896
182	0xbe61d4d2	-0.22053841
183	0xbd451521	-0.048115853
184	0x3e927d0f	0.28611037
185	0x3cdc0868	0.026859477
186	0xbe8873fa	-0.26650983
187	0xbe26d6a7	-0.16292821
188	0x3cc9f474	0.024652697
189	0x3eeeb3d6	0.4662158
190	0xbd6b920e	-0.057512335
191	0xbcd574ae	-0.026056614
192	0xbd4a07f6	-0.049324
193	0xbe2c4c75	-0.16826041
194	0x3d9f9be8	0.07793409
195	0x3ee99c6c	0.45627153
196	0xbda58249	-0.080814905
197	0xbe4d84b4	-0.20070153
198	0x3e3353b7	0.17512403
199	0x3db7d623	0.0897639
200	0xbd482acc	-0.04886894
201	0x3e10b9ce	0.14133379
202	0xbb4a9f9e	-0.0030917893
203	0xbf286538	-0.6577945
204	0xbdb89ba5	-0.09014062
205	0x3b5b3ea8	0.0033454094
206	0x3e47bb86	0.19505128
207	0x3e4c2526	0.19936046
208	0xbe317538	-0.17329872
209	0x3ed271ad	0.41102353
210	0xbddd04e9	-0.10791952
211	0x3d1815f3	0.037130307
212	0x3db31f65	0.087462224
213	0x3ee7121f	0.45131013
214	0x3cf67849	0.030086653
215	0x3e3518b6	0.17685208
216	0xbc10f755	-0.008848031
217	0x3e09745c	0.13423294
218	0xbea25555	-0.31705728
219	0x3f0b1be8	0.54339457
220	0xbeef3874	-0.46722758
221	0x3ec3ffd9	0.38281134
222	0x3e297219	0.16547431
223	0x3e338a45	0.17533214
224	0xbe93684a	-0.28790504
225	0x3d22194c	0.039574906
226	0xbe95d879	-0.29266718
227	0xbe773ab1	-0.24143483
228	0xbe6c55fd	-0.23079677
229	0x3e129438	0.14314353
230	0x3eb35b43	0.35030565
231	0xbf538ea5	-0.82639533
232	0x3ece24fd	0.40262595
233	0x3ea1ec71	0.31625703
234	0x3c539c4d	0.012915683
235	0x3c89ef2d	0.01683768
236	0x3e828a43	0.2549611
237	0x3e80ac41	0.2513142
238	0xbdebb50c	-0.11509141
239	0x3da5e7a8	0.081008255
240	0x3df2dc97	0.118584804
241	0xbe029271	-0.12751175
242	0x3e812135	0.25220647
243	0xbeab462f	-0.33451983
244	0x3a8d5842	0.0010783749
245	0x3e5be670	0.21474624
246	0x3e024184	0.12720305
247	0x3d43fa5e	0.04784619
248	0x3e20fb9f	0.15720986
249	0x3e17f1cf	0.14838336
250	0xbf00728d	-0.5017479
251	0x3d1c2d2f	0.038129028
252	0x3d822ec0	0.06356573
253	0xbe1e5df2	-0.15465525
254	0xbdbbe5b5	-0.091746725
255	0xbddccee0	-0.10781646

lstm.weight_hh_l0 f4 [256, 64]
0	0xbdeaa2e2	-0.11456849
1	0xbe329102	-0.17438129
2	0xbca0d1bd	-0.019631261
3	0x3e5d92c4	0.21638018
4	0xbe08d5a3	-0.13362746
5	0x3e4a7d1f	0.19774292
6	0x3b5cdec8	0.0033702124
7	0xbd9079bc	-0.07054469
8	0x3d86950e	0.06571399
9	0xbe85bf6a	-0.261226
10	0x3d4c355c	0.049855575
11	0x3e90959e	0.2823915
12	0x3e35da5f	0.17759083
13	0xbd159830	-0.03652209
14	0xbdb3c202	-0.087772384
15	0x3cb6a8d7	0.022297306
16	0xbe723944	-0.23654658
17	0x3d9f78ae	0.0778669
18	0x3de3039d	0.110846736
19	0xbde1091f	-0.10988068
20	0xbdaa2c80	-0.08309269
21	0x3e2a82e2	0.1665149
22	0xbe3632b0	-0.17792773
23	0x3dc4de31	0.09612692
24	0xbe5183d0	-0.20460439
25	0xbd2c3bcf	-0.042049225
26	0x3d02fdf0	0.031980455
27	0x3e7a8642	0.24465278
28	0x3e8c599c	0.27412117
29	0xbe3bcf90	-0.18340898
30	0xbdd2e76c	-0.102980465
31	0xb993efb3	-0.00028216615
32	0xbe6aef14	-0.22942764
33	0xbe0ea80f	-0.13931297
34	0xbda1ce7b	-0.07900711
35	0x3d74c246	0.059755586
36	0x3e24c91e	0.16092345
37	0x3e4a23eb	0.19740264
38	0x3e53b00f	0.2067263
39	0x3de7ebb3	0.11324253
40	0x3c28db24	0.010306153
41	0x3cb33de4	0.021880098
42	0x3e90146c	0.2814058
43	0x3ebf3e43	0.3735219
44	0x3e827cf6	0.25485963
45	0x3cdae81f	0.026722012
46	0x3e4402b1	0.19141652
47	0x3e0db0b2	0.13836935
48	0x3d43a7a5	0.0477673
49	0xbe18fa38	-0.14939201
50	0xbe0de671	-0.13857438
51	0xbe9739f3	-0.295364
52	0x3e9ca22b	0.30592474
53	0x3d9afd2d	0.07567821
54	0x3d94f7a2	0.07273795
55	0xbdd8e4de	-0.10590528
56	0xbe4133d6	-0.1886743
57	0x3d39e5fb	0.045385342
58	0x3d2cfeac	0.04223506
59	0xbd9cfdfc	-0.07665631
60	0x3de1b92a	0.11021645
61	0x3d7db92b	0.061944168
62	0x3e2c848d	0.16847439
63	0x3df56070	0.119812846
64	0xbdc6b157	-0.09701794
65	0xbdca05b0	-0.09864366
66	0xbdcee919	-0.101030536
67	0x3ecb13a5	0.39663425
68	0x3d1dcbd0	0.03852445
69	0x3df3487f	0.11879062
70	0x3cac4a91	0.02103165
71	0xbd827a93	-0.063710354
72	0xbce22c7b	-0.0276091
73	0xbe10a6ad	-0.14126082
74	0xbc67524b	-0.014118741
75	0x3dac2967	0.08406334
76	0x3d0bd14b	0.034135144
77	0xbd331f8d	-0.04373126
78	0xbdfb501d	-0.1227114
79	0x3b555a66	0.0032555102
80	0xbc851fde	-0.016250547
81	0x3cd1b6fa	0.025599945
82	0xbdcc99d3	-0.09990277
83	0x3dc315e3	0.09525659
84	0x3e5c8f4c	0.21539038
85	0xbe1eb103	-0.15497212
86	0xbd6ccbcb	-0.05781154
87	0x3d8c7569	0.06858332
88	0x3db46dc8	0.088100016
89	0x3d9428ea	0.07234366
90	0xbe1a2654	-0.15053684
91	0x3ba09769	0.004900862
92	0x3e3d0076	0.18457207
93	0xbd967135	-0.07345811
94	0x3e43203c	0.19055265
95	0x3d56ef46	0.052474283
96	0xbe9146c1	-0.28374293
97	0xbdc148fb	-0.09437748
98	0xbddbf1a4	-0.10739449
99	0x3c537250	0.012905672
100	0x3c8f6e11	0.017508538
101	0x3e5e04f0	0.21681571
102	0x3e99d0f3	0.30042228
103	0xbe113b0f	-0.14182685
104	0x3d386ea0	0.045027375
105	0x3d87ddac	0.066340774
106	0x3b9a7a67	0.0047142985
107	0xbe1a94a3	-0.15095763
108	0x3e973f9e	0.29540724
109	0xbcb20202	-0.021729473
110	0xbd84bac7	-0.064809375
111	0xbe429b47	-0.19004546
112	0xbd6f8637	-0.058477607
113	0x3e0955c2	0.1341162
114	0x3cdda339	0.02705537
115	0x3d2e62cc	0.04257469
116	0x3e9143f8	0.2837217
117	0xbc19561a	-0.009358907
118	0xbd19d16f	-0.037553247
119	0xbe76c5f5	-0.24098952
120	0xbe63d951	-0.22250868
121	0xbe67f5ab	-0.22652309
122	0x3df0f9c9	0.11766393
123	0xbc64a87b	-0.0139561845
124	0xbc6e8724	-0.014558587
125	0xbda36dd9	-0.07979936
126	0xbcee6af7	-0.02910374
127	0x3d91ca70	0.0711869
128	0xbdb344dd	-0.08753369
129	0xbf0d0ca7	-0.5509743
130	0x3df6c699	0.12049598
131	0x3e3c6c96	0.18400797
132	0xbdf3b920	-0.11900544
133	0x3db71512	0.08939566
134	0xbd5e9e5c	-0.054350242
135	0x3c89e242	0.016831521
136	0x3ccc8bbf	0.02496898
137	0x3eaf4106	0.34229296
138	0xbea04bee	-0.3130793
139	0xbd5f7b16	-0.054560743
140	0xbd29eb37	-0.041484084
141	0xbcbf5d26	-0.023359846
142	0xbd49f4c5	-0.049305696
143	0xbe5aee01	-0.21379854
144	0x3d91b690	0.07114899
145	0x3e50ed94	0.20403129
146	0xbe030b1e	-0.1279721
147	0xbe96a23e	-0.29420656
148	0xbd99a648	-0.07502419
149	0x3e94fe2e	0.29100174
150	0xbdb73160	-0.089449644
151	0xbddd3e38	-0.10802883
152	0xbeae56d5	-0.34050623
153	0xbbb15d7d	-0.005412756
154	0x3ecb1b51	0.39669278
155	0x3e6e06cc	0.2324478
156	0x3e3e1c2c	0.18565434
157	0x3d4379dc	0.047723636
158	0xbd55acce	-0.052166753
159	0xbd70ff17	-0.058837023
160	0xbd33e6e4	-0.043921366
161	0xbdc4441b	-0.095833026
162	0x3d90c642	0.07069065
163	0xbd8fae7a	-0.07015701
164	0xbe06dd81	-0.13170435
165	0x3e19498e	0.14969465
166	0x3e51f61e	0.20504043
167	0xbdc27d87	-0.09496599
168	0x3e0352e0	0.12824583
169	0x3e217b64	0.15769726
170	0xbd9c55a4	-0.07633522
171	0xbd87e929	-0.06636269
172	0xbe09516f	-0.1340997
173	0x3ca1f2f3	0.019769168
174	0x3e92ba65	0.28657833
175	0xbda2728a	-0.07932003
176	0x3cafb796	0.021449845
177	0xbe3f70c9	-0.18695368
178	0xbd48372f	-0.048880752
179	0xbd977deb	-0.07397064
180	0x3d3eb7d4	0.04656203
181	0xbe74e7c3	-0.23916535
182	0xbd705963	-0.058678996
183	0x3dd402c3	0.10352089
184	0x3ee27bcc	0.44235075
185	0x3d5ec03e	0.054382555
186	0xbe802c0a	-0.250336
187	0xbe05a5da	-0.13051549
188	0x3da00fcf	0.07815515
189	0xbe2e3f55	-0.17016347
190	0x3e0097ff	0.12557982
191	0xbe2af6e1	-0.1669574
192	0x3dfcb85e	0.12339853
193	0x3d6a4db2	0.057203002
194	0xbc77d36f	-0.015126093
195	0x3dafc473	0.085823916
196	0xbdfa0cf4	-0.12209502
197	0x3da5df5c	0.08099243
198	0xbdd1a6c0	-0.10236883
199	0xbde18eec	-0.11013588
200	0x3d8400d1	0.06445468
201	0x3d06ac5d	0.032879222
202	0x3e621f69	0.22082295
203	0x3ec79df7	0.38987705
204	0xbe4ad037	-0.1980599
205	0x3ddd2dba	0.10799737
206	0xbe317979	-0.17331494
207	0xbd44030b	-0.047854465
208	0x3d6c68fe	0.057717316
209	0x3d6b3228	0.05742088
210	0xbcf7026d	-0.030152524
211	0x3db446b2	0.088025466
212	0xbef210e6	-0.47278517
213	0x3dfafe29	0.122555085
214	0x3e810715	0.25200716
215	0xbe8e3a73	-0.27778968
216	0xbd725e40	-0.059171915
217	0x3e6cc50d	0.23122044
218	0x3d9d8ee6	0.07693271
219	0x3e2a0de0	0.16606855
220	0x3c56083c	0.013063487
221	0xbe219f3a	-0.15783396
222	0x3d23e187	0.04001
223	0x3e8de82f	0.27716205
224	0xbdabc19e	-0.08386539
225	0x3e89030a	0.2676013
226	0x3e1688eb	0.14700668
227	0xbec5abad	-0.3860754
228	0x3cd9f135	0.026604274
229	0x3e95c8ba	0.29254705
230	0xbd664582	-0.05621863
231	0x3b75365b	0.0037416432
232	0x3e29e2b4	0.16590387
233	0x3e85d448	0.2613852
234	0xbd6cad5c	-0.057782516
235	0xbdea250d	-0.11432848
236	0xbcb404a5	-0.021974871
237	0x3e341add	0.17588373
238	0xbd007426	-0.031360768
239	0x3e522d2c	0.20525044
240	0x3b4acaff	0.003094375
241	0x3dbe43f0	0.09290302
242	0x3d78ddea	0.06075851
243	0x3ebf343f	0.37344548
244	0x3e0f6b05	0.14005668
245	0x3cd707bf	0.02624881
246	0xbe8427f3	-0.2581173
247	0xbe92b384	-0.28652585
248	0xbe200a2f	-0.15628885
249	0x3e30c38b	0.17262094
250	0x3d7aba60	0.061212897
251	0x3e9d40f2	0.30713612
252	0xbdd511c8	-0.10403782
253	0x3d1ac43a	0.037784792
254	0x3cf537b2	0.029933784
255	0xbe9667a4	-0.29375947

lstm.bias_ih_l0 f4 [256]
0	0x3d03d01b	0.032180887
1	0x3bbc0933	0.0057384013
2	0x3e42ef4b	0.19036596
3	0x3de93087	0.11386209
4	0x3e51886d	0.20462199
5	0xbd1c7e1c	-0.038206205
6	0x3c1ba25f	0.0094991615
7	0x3daba87f	0.083817475
8	0x3d977482	0.07395269
9	0x3e13b4d2	0.14424446
10	0xbcb1ef26	-0.02172048
11	0xbd703dcd	-0.058652688
12	0xbc693d4d	-0.014235807
13	0x3db75e35	0.089535154
14	0x3e007778	0.12545574
15	0x3e3ff02e	0.18743965
16	0x3e5071ba	0.20355883
17	0x3dfc4472	0.123177424
18	0x3d434f2e	0.047682934
19	0xbcadc945	-0.021214137
20	0xbd44db6e	-0.048060827
21	0x3db0a113	0.086244725
22	0xbe0eee03	-0.13957982
23	0x3e3678da	0.17819539
24	0x3e00b645	0.1256953
25	0xbe16b5df	-0.14717816
26	0x3e2957a4	0.16537338
27	0x3c35ee3a	0.011104161
28	0x3db93521	0.09043337
29	0xbc7f9670	-0.015599832
30	0x3dc02328	0.093817055
31	0x3e20c8b1	0.15701558
32	0x3d7f0246	0.062258027
33	0x3e1a6692	0.1507819
34	0xbd52f5c8	-0.051503927
35	0x3d58b325	0.05290522
36	0x3cb4c018	0.022064254
37	0xbd819c2a	-0.06328614
38	0x3d6b3081	0.057419304
39	0x3e0b3037	0.13592611
40	0xbd7acf21	-0.06123269
41	0x3dc37955	0.095446266
42	0x3e29315b	0.16522734
43	0x3e0b589b	0.13608019
44	0x3d8c70a3	0.06857421
45	0x3d6dcc0e	0.05805593
46	0xbc3b1052	-0.011417465
47	0xbd206832	-0.03916187
48	0x3ccf7bc7	0.025327576
49	0xbce461f9	-0.027878748
50	0x3d15feb9	0.036619876
51	0xbd185f9f	-0.037200566
52	0x3dc69cf5	0.09697906
53	0x3dba7b49	0.09105546
54	0x3e3bf7d5	0.18356259
55	0x3dfb164b	0.122601114
56	0x3db6ed6a	0.08932002
57	0x3d4d24f9	0.050084088
58	0x3d0c77ab	0.03429381
59	0xbd4ecaff	-0.05048656
60	0x3dbbe307	0.091741614
61	0xbcd26467	-0.025682641
62	0x3d98a6ee	0.07453714
63	0x3d69c93c	0.057076678
64	0x3d83b9cd	0.06431923
65	0x3d70c2a0	0.05877936
66	0x3dc9d03d	0.098541714
67	0x3de6d221	0.11270548
68	0x3e93fbbf	0.28903005
69	0x3e90ad55	0.28257242
70	0x3d80eec2	0.062955394
71	0x3d591b09	0.0530043
72	0xbc4bd684	-0.012441281
73	0x3e14518b	0.14484231
74	0x3de38bcd	0.11110649
75	0x3e46a2f5	0.193981
76	0x3e75f225	0.24018152
77	0x3df0930d	0.11746798
78	0x3e04c56e	0.12965938
79	0x3e92f9e8	0.28706288
80	0x3e728ebb	0.2368726
81	0x3d740376	0.059573613
82	0x3d4b12b6	0.04957839
83	0x3daa4d0a	0.08315475
84	0x3ddb10e9	0.10696585
85	0x3e5aa20f	0.21350883
86	0x3e2cc750	0.16872907
87	0x3d70537d	0.05867337
88	0x3e380d1b	0.1797375
89	0x3df9e375	0.12201587
90	0x3e38ce92	0.1804755
91	0x3df29262	0.118443266
92	0x3e2b2f84	0.16717345
93	0xbc286284	-0.010277394
94	0x3e41b33e	0.18916032
95	0x3e88102a	0.26574832
96	0x3e2649f0	0.16239142
97	0xbcef90bb	-0.029243818
98	0x3dc3ac4b	0.09554347
99	0x3e1f0952	0.15530899
100	0x3d42598b	0.047448676
101	0x3e11a793	0.1422408
102	0x3d625268	0.05525437
103	0x3ccf8e5e	0.02533644
104	0x3e748f28	0.23882735
105	0x3e3b4fb8	0.18292129
106	0x3e11757d	0.14204974
107	0x3e54f063	0.20794825
108	0x3d9e7300	0.07736778
109	0xbde44ae2	-0.11147095
110	0x3dfd56ed	0.123700954
111	0x3e049287	0.12946521
112	0x3e397753	0.18111925
113	0x3e709842	0.23495582
114	0x3d86a410	0.06574261
115	0x3ddaa47e	0.10675906
116	0x3e7a411e	0.24438903
117	0x3e008fc5	0.12554844
118	0x3e3c7aa5	0.1840616
119	0x3e8f95ce	0.2804398
120	0x3e8ae7bb	0.2712992
121	0x3e792888	0.24331868
122	0x3ca041ef	0.01956269
123	0x3db20b40	0.08693552
124	0x3e246518	0.16054189
125	0x3d3d2111	0.046174113
126	0xbd9a3073	-0.07528772
127	0x3b7809ca	0.0037847632
128	0x3d14fe30	0.036375225
129	0xbd25027c	-0.040285572
130	0xbb324b67	-0.0027205588
131	0x3e5d8157	0.2163137
132	0xbcadfd75	-0.021239022
133	0x3d460ecb	0.04835395
134	0xbddff279	-0.1093492
135	0x3d7de168	0.061982542
136	0xbe0eaa12	-0.13932064
137	0xbddc03b3	-0.10742893
138	0xbcf951c5	-0.030434499
139	0x3b5698fa	0.003274499
140	0x3dcc7483	0.0998316
141	0x3e08fd9c	0.13377994
142	0xbcf7738f	-0.03020647
143	0x3d613b50	0.054988205
144	0x3df1227c	0.117741555
145	0x3e0898e4	0.13339573
146	0x3daef643	0.085430644
147	0x3dacfac8	0.0844627
148	0xbd07af27	-0.033126023
149	0xbd0779c7	-0.03307512
150	0x3dfa889b	0.12233087
151	0xbdce0729	-0.100599594
152	0x3d807ecd	0.06274185
153	0xbdc572f6	-0.09641068
154	0x3e298c57	0.16557442
155	0xbcbb7793	-0.022884166
156	0xbcd71b31	-0.026258083
157	0xbd3134ba	-0.043263175
158	0xbc32c02b	-0.010910074
159	0xbcd1f532	-0.025629614
160	0xbcbe7aa1	-0.023251833
161	0xbd34f1f6	-0.044176064
162	0xbdbba42f	-0.09162175
163	0x3d2f75b9	0.04283688
164	0x3db92267	0.09039765
165	0x3c94014c	0.018067025
166	0x3dfa172b	0.1221145
167	0x3d423001	0.04740906
168	0x3e0e25e9	0.13881649
169	0x3dc5dd92	0.09661402
170	0x3d6ca7ce	0.05777722
171	0x3e163358	0.14668024
172	0x3d838422	0.06421687
173	0x3ac413ec	0.001495955
174	0x3c140f6b	0.009036879
175	0xbdd6ffe4	-0.10498026
176	0x3bb9cd59	0.0056702313
177	0x3dfa57e4	0.12223795
178	0xbc08c185	-0.00834692
179	0xbcf8ca07	-0.030369772
180	0x3e122b0d	0.14274235
181	0x3e064da1	0.1311555
182	0x3df06921	0.11738802
183	0x3d1ca3f7	0.038242307
184	0xbc205307	-0.00978542
185	0x3d032fdd	0.032028068
186	0x3e0422c0	0.12903881
187	0xbc5e6790	-0.013574496
188	0xbc95ba78	-0.018277392
189	0x3d820f46	0.063505694
190	0x3e11110d	0.1416666
191	0x3d85d98c	0.065356344
192	0x3db3f316	0.08786599
193	0x3e286772	0.16445711
194	0x3e7d7ba2	0.24754193
195	0x3e260c97	0.1621574
196	0x3ecf60bb	0.40503487
197	0x3bc94dee	0.006143323
198	0x3e5fbfde	0.21850535
199	0x3dc9d471	0.09854973
200	0x3e3863a2	0.18006757
201	0x3e4eb3dd	0.201858
202	0x3da83d93	0.08214869
203	0x3ea7a8b2	0.32745892
204	0xbda87895	-0.08226124
205	0x3e87e19d	0.26539317
206	0x3d4a5005	0.04939272
207	0x3e77b4cf	0.24190067
208	0x3e329e9b	0.17443316
209	0x3d612580	0.054967403
210	0x3d533f7f	0.051574226
211	0x3dc4f71a	0.096174434
212	0x3e6de5b7	0.2323216
213	0x3e33c3ab	0.1755511
214	0x3bfd0bee	0.0077223694
215	0x3e7d6927	0.24747144
216	0x3e333f9b	0.17504732
217	0x3de4df85	0.111754455
218	0x3b54cd20	0.0032470897
219	0x3da7237f	0.08161067
220	0x3e8a37c8	0.26995683
221	0x3e46f7cb	0.19430463
222	0x3db7c36b	0.0897282
223	0x3e2a5c2e	0.16636726
224	0x3c873cc0	0.01650846
225	0x3dcd1be5	0.10015086
226	0x3e081e95	0.13292916
227	0x3e5a7456	0.21333441
228	0x3d42dd77	0.047574487
229	0x3e4e2b14	0.2013362
230	0x3dd947f2	0.106094256
231	0x3dc18c7a	0.09450622
232	0x3dd4785d	0.1037452
233	0x3e504e87	0.20342456
234	0x3d523bb0	0.051326454
235	0x3e1f5374	0.15559179
236	0x3e5dd020	0.21661425
237	0x3db71932	0.089403525
238	0x3de9303e	0.113861546
239	0xbaadc824	-0.0013258499
240	0x3ddef979	0.10887427
241	0x3e588097	0.21142803
242	0xbc8491a9	-0.016182737
243	0x3eaef7c8	0.34173417
244	0x3e7f1bc1	0.24912931
245	0x3e1cf7a3	0.15328841
246	0x3e11096d	0.14163752
247	0x3e1a18eb	0.15048568
248	0x3e351c96	0.17686686
249	0xbda68892	-0.081315175
250	0x3d8d24d3	0.06891789
251	0x3e53c0d1	0.20679022
252	0x3e3cd679	0.1844119
253	0x3e5db07a	0.21649352
254	0x3d9cfa7c	0.076649636
255	0x3e047d4b	0.1293842

lstm.bias_hh_l0 f4 [256]
0	0x3e58475b	0.2112097
1	0x3cebbe3a	0.02877723
2	0x3d7d3437	0.061817374
3	0x3e131845	0.14364727
4	0x3cbdc4bc	0.0231651
5	0xbd8eaa44	-0.06966069
6	0x3d2f768a	0.042837657
7	0xbd9930f5	-0.07480041
8	0x3dad3e28	0.08459121
9	0x3d0705fd	0.032964695
10	0x3dd3eb3f	0.10347604
11	0x3d752270	0.059847295
12	0xbd7ea1cd	-0.062166024
13	0x3e380cc8	0.17973626
14	0x3d7b8efe	0.061415665
15	0x3e8b8428	0.27249265
16	0x3e57e581	0.21083643
17	0x3df342cf	0.11877977
18	0x3e002c7e	0.12516972
19	0xbd4d0d17	-0.05006131
20	0x3d39be6d	0.04534762
21	0x3d8dc9d1	0.06923259
22	0x3bc24685	0.0059288167
23	0x3c5447cd	0.012956572
24	0xbca6f706	-0.020381462
25	0xbe33152e	-0.17488548
26	0xbbd3e28e	-0.0064662164
27	0x3e037595	0.12837823
28	0x3ce5f76d	0.028072083
29	0x3cc8cfc6	0.024513137
30	0x3e0d31b4	0.13788491
31	0x3e0c7802	0.13717654
32	0xbdb9040f	-0.09033977
33	0x3cb590b5	0.022163728
34	0x3dfc93ee	0.12332903
35	0xbc32983c	-0.010900553
36	0x3d3bf874	0.04589124
37	0xbdac449c	-0.08411524
38	0xbc9d7330	-0.019219965
39	0x3d7f4943	0.062325727
40	0xbcfc5b59	-0.030805277
41	0xbcf1fc38	-0.029539213
42	0x3dd94610	0.106090665
43	0xbd136b30	-0.035990894
44	0x3e0ab4f2	0.13545588
45	0xbda298d6	-0.079393074
46	0x3d88972f	0.06669461
47	0xbac9203d	-0.0015344691
48	0x3dbc89ac	0.09205946
49	0xbc7163da	-0.014733279
50	0x3d7c1448	0.06154278
51	0x3df54961	0.119768865
52	0x3dc56241	0.09637881
53	0x3bfd4549	0.0077292067
54	0x3deb8681	0.11500264
55	0x3e9e4a17	0.309159
56	0x3e2095f7	0.15682207
57	0x3e23f25b	0.1601042
58	0x3e661730	0.22469783
59	0xbda3ef4c	-0.08004627
60	0xbe056eec	-0.13030595
61	0x3d003dbd	0.03130888
62	0x3d53403e	0.051574938
63	0x3e1f6535	0.15565951
64	0x3d48acbf	0.04899287
65	0x3e1fbd42	0.1559954
66	0x3e0cf055	0.13763554
67	0x3e51f876	0.20504937
68	0x3e884750	0.26616907
69	0x3e7ff79c	0.24996799
70	0x3d807800	0.06272888
71	0xbd3f54a9	-0.046711598
72	0x3ddc93cf	0.1077038
73	0x3c7d6129	0.015465059
74	0x3e33bc55	0.17552312
75	0x3e0fcedf	0.14043759
76	0x3e6227cd	0.22085495
77	0x3d882558	0.06647748
78	0x3e16dffe	0.14733884
79	0x3e86e61b	0.26347432
80	0x3e16398e	0.14670393
81	0x3e84f5ce	0.25968784
82	0x3c8f6935	0.017506221
83	0x3de4c1d6	0.11169784
84	0x3cfca648	0.030841008
85	0x3e027a4b	0.12741964
86	0x3e272dd7	0.1632608
87	0x3d9417b3	0.07231083
88	0x3cd75202	0.026284222
89	0x3d8aab9f	0.067710154
90	0x3e0fec6b	0.1405503
91	0x3e5ec0ca	0.2175323
92	0x3e643ac0	0.22288036
93	0xba760a56	-0.00093856954
94	0x3e6773f0	0.2260282
95	0x3e96e1f2	0.29469258
96	0x3e6ffa2f	0.23435281
97	0x3e44d2ac	0.1922099
98	0x3e91fe8f	0.28514525
99	0x3dec1c04	0.11528781
100	0x3e725d25	0.23668344
101	0x3e303b36	0.17210087
102	0x3e0de386	0.13856325
103	0x3d7efab2	0.0622508
104	0x3e8af184	0.27137387
105	0x3d149f42	0.036284693
106	0x3e8aa447	0.2707846
107	0x3cb0d04a	0.021583695
108	0x3e70647e	0.23475835
109	0x3ddf2ab3	0.10896816
110	0x3dfed6e6	0.124433324
111	0xbc5a351b	-0.013318325
112	0x3e84fecc	0.25975645
113	0x3d4f3a92	0.050592966
114	0x3d19330a	0.03740219
115	0x3e4a6ed2	0.19768837
116	0x3e58a458	0.21156442
117	0x3c2560df	0.010093897
118	0x3e4c8883	0.1997395
119	0x3ea23342	0.31679732
120	0x3e5d3611	0.21602656
121	0x3e91d9f2	0.28486592
122	0x3e0b0a83	0.13578229
123	0x3df52451	0.119698174
124	0x3e5be5af	0.21474336
125	0x3e33d135	0.17560275
126	0x3d96f27e	0.073704705
127	0xbd79b7ae	-0.060966186
128	0xbd8c2018	-0.06842059
129	0xbc0d57b9	-0.008626872
130	0xbd827da9	-0.06371624
131	0x3e41b802	0.1891785
132	0xbe28b262	-0.16474298
133	0x3e181d77	0.1485499
134	0xbd793941	-0.060845617
135	0xbc8d45b4	-0.017245151
136	0xbe1dbcd7	-0.15404068
137	0xbe0bda36	-0.1365746
138	0x3baed571	0.005335503
139	0x3ddcbf77	0.107787065
140	0xbd857987	-0.0651732
141	0x3e162ab1	0.14664723
142	0xbe472725	-0.19448526
143	0xbcb97be1	-0.022642078
144	0x3df650c2	0.12027122
145	0xbd9c6d8b	-0.07638081
146	0x3de85da7	0.11345988
147	0xbcee2bd3	-0.029073631
148	0xbdd653af	-0.1046518
149	0xbda79260	-0.08182216
150	0xbd662652	-0.05618889
151	0xbd38c1fe	-0.04510688
152	0xbcbc5b9c	-0.022992902
153	0xbdee9f8e	-0.116515264
154	0x3e5d6d35	0.2162369
155	0x3e2b310a	0.16717926
156	0x3db431d6	0.08798568
157	0xbe08d6e3	-0.13363223
158	0x3d8d7761	0.06907535
159	0xbd614d96	-0.055005632
160	0xbd6460c0	-0.05575633
161	0x3e022533	0.12709503
162	0x3dd979e5	0.10618953
163	0xbe141120	-0.14459658
164	0x3d2c059d	0.04199754
165	0x3dd1083b	0.10206648
166	0x3ca2e82a	0.019886095
167	0x3d9a5088	0.07534891
168	0x3e333153	0.17499284
169	0x3db72d68	0.089442074
170	0x3e0ec5bf	0.13942622
171	0xbd2899fc	-0.041162476
172	0xbd54e5b7	-0.051976886
173	0xbc0bb153	-0.008526164
174	0x3caf18c0	0.021374106
175	0x3c59bcc1	0.013289631
176	0xbe0efd4f	-0.13963817
177	0x3cd4c1e4	0.02597136
178	0x3adeec10	0.0017007608
179	0x3de76e5e	0.11300348
180	0x3daf237c	0.0855169
181	0x3e05f31d	0.13081022
182	0xbdbb26a5	-0.0913823
183	0xbe312046	-0.17297468
184	0x3dad9544	0.08475736
185	0x3c733fe5	0.014846777
186	0x3d099903	0.03359319
187	0xbdb8e6d8	-0.09028405
188	0x3e042b99	0.12907256
189	0xbe17f678	-0.14840114
190	0x3d77f5b6	0.060537063
191	0xbcede1cb	-0.02903833
192	0xbd0445e8	-0.03229323
193	0x3e02f575	0.12788947
194	0x3e2658d6	0.16244826
195	0x3e3c5575	0.18391974
196	0x3eb50fb0	0.3536353
197	0x3c8ec8d9	0.017429756
198	0x3e7110ba	0.23541537
199	0x3d8276b8	0.063703
200	0x3e2bb133	0.16766815
201	0x3d8e13cb	0.06937369
202	0x3dab4bc3	0.0836406
203	0x3e52cf5c	0.20586914
204	0x3ce1f515	0.027582685
205	0x3e984239	0.29738024
206	0x3d36b97e	0.044610493
207	0x3e81e0ec	0.25366914
208	0x3e013247	0.12616836
209	0x3de9b1c2	0.11410858
210	0x3d9c50f0	0.07632625
211	0x3df1cd25	0.11806706
212	0x3dddc545	0.10828642
213	0x3ea87269	0.32899788
214	0x3db8da20	0.09025979
215	0x3ec86143	0.39136705
216	0x3d36d130	0.04463309
217	0x3d5b57b7	0.05355045
218	0x3ca74c3e	0.020422097
219	0x3e2dcd8f	0.16972946
220	0x3ddc30b7	0.10751479
221	0x3e2a2744	0.16616541
222	0x3dc176b6	0.094464704
223	0x3def5a70	0.116871715
224	0x3e0b6cd1	0.13615729
225	0x3e0c79e2	0.1371837
226	0x3e6e4263	0.23267512
227	0x3e89a1d7	0.26881287
228	0x3e274720	0.16335726
229	0x3df6af81	0.120451935
230	0x3e4a36df	0.19747494
231	0x3d049594	0.03236921
232	0x3d0b0c34	0.033947185
233	0x3e5ce911	0.21573283
234	0x3df9b440	0.12192583
235	0x3d981ab7	0.074269705
236	0x3e25c91f	0.16190003
237	0x3e320d53	0.17387895
238	0xbc0f482a	-0.008745233
239	0x3d4d6729	0.05014721
240	0x3dc5bedd	0.09655545
241	0x3eafb9b6	0.34321374
242	0x3e2049d8	0.15653169
243	0x3f003830	0.50085735
244	0x3e522fb6	0.20526013
245	0x3df043de	0.11731695
246	0x3e18b922	0.14914373
247	0x3d5b2f74	0.05351205
248	0x3eb34bf7	0.35018894
249	0x3d72f02a	0.05931107
250	0x3e8d9474	0.27652323
251	0x3e5a4c5b	0.2131819
252	0x3e787df9	0.24266805
253	0x3e1e7a73	0.15476398
254	0x3e13377b	0.14376633
255	0x3e53d7aa	0.20687738

fc1.weight f4 [32, 64]
0	0xbd009776	-0.031394444
1	0x3db63cde	0.08898328
2	0x3e950eef	0.29112956
3	0x3e5afc41	0.2138529
4	0x3ddfc011	0.10925306
5	0x3c231e99	0.0099560255
6	0xbe75eefe	-0.2401695
7	0xbe44510c	-0.19171542
8	0xbe53e436	-0.20692524
9	0xbe561366	-0.20905837
10	0x3cad5eda	0.021163393
11	0x3e6eab10	0.23307443
12	0xbd54d1c9	-0.05195788
13	0xbdc87af3	-0.09789076
14	0x3e91f8f4	0.2851025
15	0x3d42129f	0.04738104
16	0xbdd1e1d3	-0.10248151
17	0x3b268ece	0.0025414708
18	0x3aef8490	0.001827376
19	0xbe8728e5	-0.26398388
20	0x3e70de33	0.23522262
21	0x3cf59850	0.029979855
22	0x3d4a499e	0.049386613
23	0xbe07a3cc	-0.13246077
24	0xbe07e4db	-0.13270895
25	0x3e5993d3	0.21247797
26	0x3dfa2cbd	0.122155644
27	0xbe5f39a2	-0.21799329
28	0xbe8ee3bb	-0.2790812
29	0x3e1a18cc	0.15048522
30	0x3e1f2a6d	0.15543528
31	0xbe05a081	-0.13049509
32	0x3de7a8b5	0.11311475
33	0xbe758482	-0.23976329
34	0xbea9ac0c	-0.33139074
35	0x3e190716	0.1494411
36	0xbe42edee	-0.19036075
37	0x3d725878	0.0591664
38	0x3d9aacac	0.07552466
39	0x3df3ad7b	0.11898323
40	0x3e046806	0.12930307
41	0x3d9e268f	0.07722198
42	0x3d1aa3f4	0.037754014
43	0x3e7e041e	0.24806258
44	0x3de41d13	0.11138358
45	0xbe150328	-0.14551985
46	0xbd5dc1dd	-0.05413996
47	0xbdaddf2c	-0.08489832
48	0xbddc0458	-0.10743016
49	0x3c671dfa	0.014106268
50	0x3c7d5b37	0.015463642
51	0x3e39f6b9	0.18160523
52	0xbd88805d	-0.06665108
53	0xbe1c8a5c	-0.15287155
54	0x3cc514c3	0.024057752
55	0x3e3f68c5	0.1869231
56	0x3da6e0ad	0.08148322
57	0x3e186fea	0.14886442
58	0xbda9723f	-0.08273744
59	0x3df76ab2	0.120808974
60	0xbe1e9922	-0.15488103
61	0x3eca5205	0.395157
62	0xbea73d45	-0.32663932
63	0xbe2bad64	-0.16765362
64	0x3daa5a8d	0.083180524
65	0x3dac2d4c	0.08407077
66	0x3cc7f627	0.024409367
67	0x3dcdab41	0.1004243
68	0x3e509d83	0.20372586
69	0xbe1b32f7	-0.1515616
70	0x3d7f439f	0.062320348
71	0x3e4f28d1	0.20230414
72	0x3debb2f0	0.11508739
73	0xbcfab14f	-0.030602125
74	0x3dae8c49	0.08522851
75	0xbde93e8b	-0.11388882
76	0xbd0fdbcf	-0.035121735
77	0xbc6f14e4	-0.014592383
78	0x3e40116c	0.18756646
79	0xbe4e376b	-0.20138328
80	0x3d8c1efc	0.06841847
81	0x3c6ded2f	0.014521881
82	0x3c6d0237	0.01446586
83	0x3e0b8471	0.13624741
84	0x3e81ea61	0.2537413
85	0xbe138d49	-0.14409365
86	0x3d663c8b	0.056210082
87	0xbcb50b4c	-0.022100113
88	0xbe4ad1b9	-0.19806565
89	0xbe027dbf	-0.12743281
90	0x3e80ad7f	0.25132367
91	0xbe53072f	-0.20608209
92	0xbe29125f	-0.16510914
93	0x3e1bd7f3	0.15219097
94	0x3ec06026	0.37573355
95	0xbd7d6b16	-0.061869703
96	0x3e2faf26	0.17156658
97	0xbdc6f834	-0.0971531
98	0x3de3f3aa	0.111304596
99	0xbd8c37b9	-0.06846566
100	0x3d8b73ec	0.0680922
101	0xbe4f6221	-0.20252277
102	0xbdc3616f	-0.09540068
103	0x3d29b5d1	0.04143316
104	0x3e320ce4	0.1738773
105	0x3e90b6eb	0.28264555
106	0x3d06424a	0.032778062
107	0x3c8013f6	0.015634518
108	0x3e5baaa7	0.21451817
109	0xbdadca1e	-0.084858164
110	0x3e24d27a	0.16095915
111	0x3c895a0a	0.016766567
112	0xbe458e9a	-0.1929268
113	0xbcfda384	-0.03096176
114	0x3dc3005a	0.095215514
115	0xbe96d2bc	-0.29457653
116	0x3d2e8852	0.042610474
117	0xbbad96b2	-0.0052975053
118	0xbd3bede3	-0.045881163
119	0x3d76e32e	0.06027525
120	0xbe05f281	-0.13080789
121	0x3e94cb54	0.29061377
122	0x3da84302	0.08215906
123	0x3cf7543f	0.030191539
124	0xbe8018a8	-0.2501881
125	0xbde08a4a	-0.109638765
126	0xbe37a934	-0.1793564
127	0x3e15ecb0	0.1464107
128	0x3dcd7180	0.10031414
129	0xbd00fa83	-0.031488907
130	0xbe89a249	-0.26881626
131	0x3e670356	0.22559866
132	0xbe826ec9	-0.25475147
133	0xbdf6c407	-0.12049108
134	0xbe7d524a	-0.24738422
135	0x3eaf80e3	0.3427802
136	0xbdffbf91	-0.1248771
137	0x3e19ab61	0.15006782
138	0xbe04947f	-0.12947272
139	0x3d18ee33	0.03733654
140	0xbe667bac	-0.22508115
141	0xbe0a4377	-0.13502298
142	0xbb8f19c2	-0.0043670842
143	0x3e7d7bc1	0.2475424
144	0xbe1f0e0c	-0.15532702
145	0x3d9747e6	0.073867604
146	0xbd460637	-0.04834577
147	0x3e0b23b1	0.13587834
148	0x3e080829	0.13284363
149	0xbdb5658e	-0.08857261
150	0x3e17020a	0.14746872
151	0x3db55e0c	0.08855829
152	0xbc8cad17	-0.01717238
153	0xbe0669d2	-0.13126305
154	0xbdc6e59f	-0.097117655
155	0xbe326958	-0.17422998
156	0x3e3f9293	0.18708257
157	0xbe277254	-0.16352206
158	0xbe4263a9	-0.1898333
159	0x3e943cb8	0.28952575
160	0x3d17f837	0.03710195
161	0x3dc904bd	0.09815357
162	0xbd2edd65	-0.042691607
163	0x3e4fd830	0.20297313
164	0x3e3a15a1	0.18172313
165	0x3d4c3e63	0.049864184
166	0xbd812f22	-0.06307818
167	0x3db5ce01	0.08877183
168	0x3e2c55cf	0.16829608
169	0xbda85a30	-0.08220327
170	0x3d592fc1	0.053024057
171	0x3e49da74	0.1971224
172	0xbe7a973e	-0.24471757
173	0xbe6166a6	-0.22011814
174	0x3d64df49	0.055877004
175	0xbdf44d48	-0.11928803
176	0xbc2ce7aa	-0.01055328
177	0x3e5655dc	0.2093119
178	0x3d29fc4d	0.04150038
179	0x3d19510a	0.0374308
180	0x3ddbd976	0.10734837
181	0xbe8d5fbf	-0.2761211
182	0xbe0965b0	-0.13417697
183	0xbc52b680	-0.012860894
184	0x3e4edbfc	0.20201105
185	0xbe9e5b34	-0.30928957
186	0xbb4bd4b7	-0.003110213
187	0xbe32f3ef	-0.17475866
188	0x3d799d71	0.060941163
189	0x3d0cafa3	0.034347188
190	0xbdd0fb4e	-0.102041826
191	0x3e5f60ac	0.21814221
192	0xbe168f85	-0.14703186
193	0xbe219049	-0.15777697
194	0xbe3ec95d	-0.18631501
195	0x3e26e66c	0.16298836
196	0xbe6d31f7	-0.23163591
197	0xbd564d55	-0.052319843
198	0xbc688a8e	-0.01419319
199	0xbe4f8f49	-0.20269503
200	0xbe659c99	-0.22423019
201	0xbdf5db84	-0.1200476
202	0xbe1f1db7	-0.15538679
203	0x3d709341	0.058734182
204	0x3cfa542e	0.030557718
205	0xbe184d02	-0.14873126
206	0xbdc6b006	-0.097015426
207	0xbd6a5057	-0.057205524
208	0xbe2974ad	-0.16548415
209	0x3e0142cd	0.12623139
210	0xbe7511cd	-0.23932572
211	0xbe42cfc9	-0.19024576
212	0x3dd5f5bc	0.10447261
213	0x3d95392a	0.07286294
214	0x3d126d4b	0.03574876
215	0x3e129b9d	0.14317174
216	0x3e6ababf	0.229228
217	0x3e84ca04	0.25935376
218	0x3dbecd1b	0.093164645
219	0xbd9dd4b9	-0.07706589
220	0x3d2492b0	0.040178955
221	0xbe85dc6b	-0.26144728
222	0xbdf43555	-0.11924235
223	0x3e0481fa	0.12940207
224	0x3e005dd2	0.1253579
225	0xbc3df02c	-0.011592906
226	0x3def3f4b	0.11681994
227	0x3c269eb3	0.010169673
228	0x3e8d7241	0.2762623
229	0x3e4343c3	0.19068818
230	0xbe16d5a2	-0.14729932
231	0xbca4ee0e	-0.020133045
232	0xbe1fd188	-0.15607274
233	0xbe600ba7	-0.21879445
234	0x3dfbf469	0.12302477
235	0x3e8a37b7	0.26995632
236	0x3ddd5966	0.10808067
237	0xbec42a4e	-0.38313526
238	0x3e3caf9f	0.18426369
239	0xbd95439b	-0.07288285
240	0x3d478ba9	0.048717175
241	0x3d0e7938	0.034783572
242	0x3d319afe	0.043360703
243	0x3e877a1b	0.26460347
244	0x3dee75ae	0.11643539
245	0x3d8fd0fd	0.07022283
246	0xbde23ab0	-0.1104635
247	0x3c97147c	0.018442385
248	0xbb8f121a	-0.0043661715
249	0xbda6395d	-0.0811641
250	0xbd93f2ad	-0.07224021
251	0x3c3810e4	0.011234496
252	0x3e8c79e8	0.27436757
253	0x3d4f74da	0.050648548
254	0xbd784be0	-0.060619235
255	0xbeaa2a0f	-0.33235213

fc1.bias f4 [32]
0	0x3da67c5a	0.08129187
1	0x3ccda592	0.025103364
2	0xbd064b56	-0.03278669
3	0xbc8d69f0	-0.017262429
4	0x3db349be	0.087542996
5	0xbc214f8e	-0.0098456275
6	0x3ca681a2	0.020325486
7	0x3c8ab4eb	0.016931972
8	0xbdee3b1c	-0.11632368
9	0x3a24cdca	0.00062867685
10	0xbdd00b6b	-0.10158428
11	0x3dd02222	0.1016276
12	0xbdaae352	-0.08344139
13	0xbd91dbc1	-0.07121993
14	0xbc94769e	-0.018122967
15	0xbd61344c	-0.054981515
16	0xbd513e74	-0.05108495
17	0xbd1c5381	-0.038165573
18	0x3d746916	0.05967053
19	0x3da87bf8	0.0822677
20	0x3d4912cb	0.049090188
21	0x3e1d7351	0.15376021
22	0xbcd401ce	-0.025879767
23	0xbe0192be	-0.12653634
24	0xbe26722b	-0.16254489
25	0x3cca47e0	0.024692476
26	0x3dc3127c	0.0952501
27	0xbdbecc2f	-0.09316289
28	0x3e06f091	0.13177706
29	0x3e307f71	0.17236115
30	0x3dd37623	0.10325267
31	0x3de3956b	0.111124836

fc2.weight f4 [20, 32]
0	0x3e36af33	0.1784027
1	0xbec04661	-0.37553695
2	0x3dec3898	0.11534232
3	0xbeb7085c	-0.35748565
4	0xbea25b96	-0.317105
5	0xbe9e2aa0	-0.30891895
6	0x3e44c8fc	0.19217294
7	0x3e374417	0.17897068
8	0x3c61db70	0.013785228
9	0xbe544895	-0.20730813
10	0x3de0c350	0.10974753
11	0xbe6aa3e1	-0.22914077
12	0x3e22eef2	0.15911463
13	0xbdd1e6e3	-0.10249116
14	0xbeb12f5c	-0.34606445
15	0xbe3ad1ac	-0.18244046
16	0xbeb1e905	-0.34748092
17	0x3e5bfb6b	0.21482627
18	0xbe0568e9	-0.13028301
19	0xbd6765cb	-0.05649356
20	0xbedbb57d	-0.42911902
21	0x3e251c86	0.16124162
22	0x3e106008	0.14099133
23	0xbe52a584	-0.20570952
24	0x3e20233d	0.15638442
25	0x3ddd106e	0.10794149
26	0x3e254af6	0.16141877
27	0x3e314ff3	0.17315654
28	0xbee76c1d	-0.4519967
29	0xbe3cbaa3	-0.18430571
30	0x3df924b1	0.121652015
31	0xbe62c9e9	-0.22147335
32	0xbe8d3430	-0.27578878
33	0xbeb7d038	-0.35901046
34	0xbe4fe682	-0.20302776
35	0xbdbacfe2	-0.09121682
36	0x3e36f38f	0.17866348
37	0xbd8e4b81	-0.06947995
38	0xbe9e4f82	-0.30920035
39	0x3e53a96d	0.206701
40	0xbe5ba3d5	-0.21449216
41	0xbe574d20	-0.21025515
42	0xbe94ffc2	-0.29101378
43	0x3e6e4441	0.23268224
44	0x3e1abcbe	0.15111062
45	0x3e44a44e	0.19203302
46	0xbe892ac0	-0.26790428
47	0xbe9859ad	-0.29755917
48	0x3e48b803	0.19601445
49	0xbe1b4162	-0.1516166
50	0xbe95f818	-0.29290843
51	0xbe2f7766	-0.1713539
52	0xbe9f6489	-0.3113139
53	0xbe9ac21b	-0.30226216
54	0xbe3da6b3	-0.18520622
55	0xba14145c	-0.0005648786
56	0x3e2f244c	0.1710369
57	0x3e284365	0.16431959
58	0x3e039fc9	0.12853922
59	0xbe648761	-0.22317268
60	0x3decb4f8	0.115579545
61	0xbe669b9c	-0.22520298
62	0xbe17a3ee	-0.14808628
63	0x3e554596	0.20827326
64	0xbeccd630	-0.40007162
65	0x3e582dc1	0.21111204
66	0x3e3ced84	0.1844998
67	0xbe303aed	-0.17209978
68	0xbce1169d	-0.027476603
69	0xbda2d183	-0.079501174
70	0x3c2a8c4f	0.010409429
71	0xbe17dd0b	-0.14830415
72	0x3dfa88b0	0.12233102
73	0x3e2bfc23	0.16795401
74	0xbd57bd88	-0.052670985
75	0xbcbbaa7a	-0.022908438
76	0x3e362eb3	0.17791252
77	0xbe3139fd	-0.17307277
78	0xbd8078d4	-0.06273046
79	0xbe23525d	-0.15949388
80	0xbcf258b6	-0.029583316
81	0xbdab6edb	-0.083707534
82	0xbe888b67	-0.26668856
83	0xbe9410da	-0.28919107
84	0xbe89b1b6	-0.26893395
85	0xbedb8329	-0.42873505
86	0xbf14190a	-0.57850707
87	0xbd0cb113	-0.03434856
88	0xbe5c723a	-0.21527949
89	0xbe961d76	-0.29319352
90	0xbf17cc79	-0.59296376
91	0x3e4f32de	0.20234248
92	0x3e02b318	0.12763631
93	0x3e5f4623	0.21804099
94	0xbe8699f0	-0.2628932
95	0xbd9cf502	-0.07663919
96	0x3e1effb7	0.15527235
97	0x3e3acfb5	0.18243296
98	0x3e186896	0.14883646
99	0xbd0a00ad	-0.03369205
100	0x3e21f79b	0.1581711
101	0xbe3829e8	-0.17984736
102	0xbe95d270	-0.29262114
103	0x3e3c63dd	0.1839747
104	0x3dd19ef5	0.10235397
105	0x3e0d7e8d	0.13817807
106	0xbec67723	-0.3876277
107	0xbe6fda68	-0.23423159
108	0xbe364ab8	-0.1780194
109	0xbe81e736	-0.25371712
110	0x3e577552	0.21040848
111	0x3e30feea	0.17284742
112	0x3e35bebc	0.1774854
113	0xbc2303ab	-0.009949605
114	0xbea7fc3a	-0.3280962
115	0xbe8c495c	-0.2739972
116	0xbebfea70	-0.3748355
117	0xbe98d5cd	-0.29850617
118	0xbe9b6a32	-0.30354458
119	0xbe10f073	-0.14154224
120	0xbe0b10fa	-0.13580695
121	0x3e16075c	0.14651245
122	0xbe6cbe13	-0.23119383
123	0xbea5a200	-0.3235016
124	0x3df1ce64	0.11806944
125	0xbe9ee852	-0.3103662
126	0x3e1bf605	0.15230568
127	0xbdeb1a32	-0.11479606
128	0xbea4d99c	-0.32197273
129	0xbec470a1	-0.3836718
130	0x3e3c38fa	0.1838111
131	0x3e27a2f6	0.16370758
132	0x3dfa9536	0.12235491
133	0x3e4259e6	0.18979606
134	0xbedcdda8	-0.4313786
135	0xbeb3f533	-0.3514801
136	0xbecfe68f	-0.4060559
137	0xbe932764	-0.2874099
138	0x3e153cab	0.14573924
139	0x3e5ec215	0.21753724
140	0xbed43433	-0.41446075
141	0xbe2ae714	-0.16689712
142	0x3e5b41ad	0.21411772
143	0xbe81fefc	-0.2538985
144	0xbe4b24ad	-0.1983821
145	0xbe703fb4	-0.23461801
146	0xbebe8583	-0.37211236
147	0xbe9b331f	-0.3031244
148	0x3e5e1056	0.21685919
149	0x3da2db2f	0.07951962
150	0xbe8bb5c0	-0.27287102
151	0xbe63730f	-0.2221186
152	0x3daa710e	0.08322345
153	0x3e0447f9	0.1291808
154	0xbe95e5d4	-0.29276907
155	0x3e2e6f4e	0.17034647
156	0xbeab1249	-0.33412388
157	0x3e2f3315	0.1710933
158	0x3e474a6e	0.19461986
159	0xbe433e7e	-0.19066808
160	0xbe8beb23	-0.27327833
161	0xbd68a03f	-0.056793448
162	0x3e19d775	0.15023597
163	0x3da60384	0.08106139
164	0xbcdae5b0	-0.026720852
165	0x3e2c3ac0	0.16819286
166	0x3e409410	0.18806481
167	0xbe85e943	-0.26154527
168	0x3d5ff6db	0.05467878
169	0xbc1474e1	-0.009061069
170	0x3e2ce8a1	0.16885616
171	0x3d23cd1b	0.039990526
172	0xbe6c80b6	-0.23095974
173	0xbd16be05	-0.03680231
174	0xbe341b56	-0.17588553
175	0x3e4c75e5	0.19966848
176	0x3e25c35c	0.16187805
177	0xbd960349	-0.07324845
178	0x3e2ba83d	0.16763397
179	0xbe89b2d6	-0.26894253
180	0xbe1041ae	-0.14087555
181	0xbdeee0cc	-0.1166397
182	0x3d7fb692	0.062429972
183	0xbcd186de	-0.025577005
184	0x3e553377	0.20820414
185	0xbd97bf0e	-0.07409488
186	0x3e0e9776	0.13924965
187	0x3e2603cc	0.16212386
188	0x3e0d802d	0.13818426
189	0xbc994c7b	-0.018713227
190	0xbdfd24b6	-0.12360518
191	0xbd2af04e	-0.04173308
192	0x3e17d0ee	0.14825794
193	0x3df4a945	0.11946348
194	0xbe0fdacb	-0.14048307
195	0x3e253c26	0.16136226
196	0xbe825f76	-0.25463456
197	0x3dc98894	0.09840503
198	0x3cadf688	0.02123572
199	0xbea3d346	-0.31997126
200	0x3d6d7a66	0.057978056
201	0x3de499e3	0.11162164
202	0x3d80bacb	0.06285628
203	0xbe1e0bfd	-0.1543426
204	0x3e08bc62	0.13353112
205	0x3e2318cd	0.1592743
206	0x3e5093c5	0.2036887
207	0x3e32b023	0.17450003
208	0xbdc12783	-0.094313644
209	0x3e6ede44	0.23326975
210	0x3de5f548	0.11228424
211	0x3de211f6	0.11038582
212	0x3e255a07	0.16147624
213	0x3d2ff337	0.042956557
214	0xba6e896d	-0.00090994575
215	0x3e525017	0.20538364
216	0xbd29f795	-0.04149588
217	0x3dbd0688	0.09229761
218	0x3de56566	0.11200981
219	0xbd0a216e	-0.033723287
220	0x3d964388	0.07337099
221	0x3e3b2b22	0.18278173
222	0xbdc520f7	-0.09625428
223	0x3e38302f	0.1798713
224	0x3e2ae4ae	0.16688797
225	0x3e294157	0.16528831
226	0xbe47c202	-0.19507602
227	0xbe901ded	-0.28147832
228	0x3decc97b	0.11561867
229	0x3e2810d9	0.16412677
230	0x3e31708d	0.17328091
231	0x3e0bc534	0.13649446
232	0xbe84cb43	-0.25936326
233	0xbe10cf63	-0.14141612
234	0xbeb80778	-0.35943198
235	0xbe736961	-0.23770668
236	0x3e40976c	0.18807763
237	0xbe0685c1	-0.1313696
238	0x3e67adc3	0.22624879
239	0x3e4e07d2	0.2012017
240	0x3e3227f7	0.17398058
241	0xbdfa889f	-0.1223309
242	0xbeb9922e	-0.3624434
243	0xbe731430	-0.2373817
244	0x3e41c93f	0.18924426
245	0xbe90f7b8	-0.28313994
246	0xbefcfb1b	-0.49410328
247	0xbe4f97c2	-0.20272735
248	0x3e5a07de	0.21292064
249	0xbe7d09c0	-0.2471075
250	0xbefeaa10	-0.49739122
251	0xbe5d6caa	-0.21623483
252	0xbe1bc19e	-0.15210578
253	0xbe04af5f	-0.12957524
254	0xbe8fe8d7	-0.2810733
255	0x3e4c61de	0.19959208

fc2.bias f4 [20]
0	0xbe2051ca	-0.156562
1	0x3da8f57e	0.08249949
2	0x3efa23fa	0.48855573
3	0xb8308df9	-4.2093892e-05
4	0x3e55f5c0	0.20894527
5	0x3e59a911	0.212559
6	0xbe5f912b	-0.21832721
7	0xbd203c00	-0.03911972
8	0x3dae8308	0.08521086
9	0xbcb34cc4	-0.02188719
10	0xbdc97031	-0.09835852
11	0x3e93e29e	0.28883833
12	0xbcb53488	-0.022119775
13	0xbe5812d1	-0.21100928
14	0x3e02a2e8	0.12757456
15	0x3dc62371	0.09674729
16	0x3c61e852	0.0137883
17	0xbe7fa434	-0.24964982
18	0xbc009fb7	-0.007850579
19	0xbe2c9ba1	-0.16856243
